ei-first-project-classifier-tensorflow-lite-int8-quantized-model.lite (tflite, 3520 bytes, 3 tensors)

sequential/y_pred/MatMul i1 [4, 10] scale=0.006283758 zero_point=0
0	0x2f	0.29533663
1	0x37	0.3456067
2	0x76	0.74148345
3	0xcf	-0.30790415
4	0xf0	-0.10054013
5	0x8f	-0.71006465
6	0x81	-0.7980373
7	0xdd	-0.21993154
8	0x5c	0.57810575
9	0x3d	0.38330925
10	0x4a	0.4649981
11	0xee	-0.11310765
12	0x98	-0.65351087
13	0x95	-0.67236215
14	0xaa	-0.5404032
15	0xa4	-0.57810575
16	0x16	0.13824268
17	0x29	0.25763407
18	0xd2	-0.28905287
19	0x1b	0.16966148
20	0xa5	-0.571822
21	0x56	0.5404032
22	0x9f	-0.60952455
23	0x95	-0.67236215
24	0x60	0.6032408
25	0xc7	-0.3581742
26	0x56	0.5404032
27	0x2b	0.2702016
28	0x3f	0.39587677
29	0xba	-0.4398631
30	0xfa	-0.03770255
31	0xf0	-0.10054013
32	0x1d	0.18222898
33	0x41	0.4084443
34	0x05	0.031418793
35	0xbb	-0.43357933
36	0x53	0.5215519
37	0xec	-0.12567517
38	0xab	-0.5341194
39	0x89	-0.7477672

sequential/dense_1/MatMul i1 [10, 20] scale=0.004496937 zero_point=0
0	0x33	0.2293438
1	0xc2	-0.2788101
2	0xc4	-0.26981622
3	0x05	0.022484686
4	0x62	0.44069985
5	0x1d	0.13041118
6	0x62	0.44069985
7	0x9d	-0.44519678
8	0xf4	-0.053963244
9	0xe0	-0.14390199
10	0x09	0.040472433
11	0x08	0.035975497
12	0x46	0.3147856
13	0x62	0.44069985
14	0x28	0.17987749
15	0xba	-0.3147856
16	0x0f	0.067454055
17	0xd0	-0.21585298
18	0xcc	-0.23384073
19	0x19	0.11242343
20	0xcb	-0.23833767
21	0x9a	-0.4586876
22	0x35	0.23833767
23	0x3b	0.2653193
24	0x29	0.18437442
25	0xd7	-0.18437442
26	0xd0	-0.21585298
27	0xb4	-0.34176722
28	0xb5	-0.3372703
29	0x09	0.040472433
30	0xdf	-0.14839892
31	0xd0	-0.21585298
32	0x31	0.22034992
33	0x1a	0.11692037
34	0x43	0.3012948
35	0x49	0.32827643
36	0xcf	-0.22034992
37	0x2f	0.21135604
38	0xd9	-0.17538054
39	0xe7	-0.11242343
40	0x05	0.022484686
41	0xe0	-0.14390199
42	0x16	0.09893262
43	0x53	0.37324578
44	0xe9	-0.103429556
45	0xf0	-0.071950994
46	0xde	-0.15289587
47	0x2b	0.1933683
48	0xd8	-0.17987749
49	0x10	0.071950994
50	0x0c	0.053963244
51	0x3e	0.2788101
52	0xe8	-0.10792649
53	0xa1	-0.42720902
54	0xfb	-0.022484686
55	0xaa	-0.3867366
56	0x66	0.4586876
57	0xc0	-0.28780398
58	0xd0	-0.21585298
59	0xb5	-0.3372703
60	0x3f	0.28330705
61	0x29	0.18437442
62	0x62	0.44069985
63	0xfb	-0.022484686
64	0xc7	-0.25632542
65	0x57	0.39123353
66	0xc2	-0.2788101
67	0xdf	-0.14839892
68	0xdd	-0.1573928
69	0x55	0.38223967
70	0x44	0.30579174
71	0x2e	0.20685911
72	0xbd	-0.3012948
73	0xa1	-0.42720902
74	0xeb	-0.09443568
75	0xcc	-0.23384073
76	0xfa	-0.026981622
77	0xb3	-0.34626415
78	0x59	0.4002274
79	0x35	0.23833767
80	0xcb	-0.23833767
81	0x17	0.103429556
82	0xb6	-0.33277336
83	0xe3	-0.13041118
84	0xba	-0.3147856
85	0x32	0.22484685
86	0xe6	-0.11692037
87	0x29	0.18437442
88	0xbb	-0.31028867
89	0x15	0.09443568
90	0x63	0.44519678
91	0x42	0.29679784
92	0xe6	-0.11692037
93	0x3a	0.26082236
94	0x23	0.1573928
95	0xcd	-0.2293438
96	0xcd	-0.2293438
97	0x7f	0.571111
98	0x38	0.2518285
99	0x30	0.21585298
100	0xb0	-0.35975498
101	0x3d	0.27431315
102	0xac	-0.3777427
103	0x28	0.17987749
104	0xf8	-0.035975497
105	0x9e	-0.44069985
106	0xf7	-0.040472433
107	0x3e	0.2788101
108	0x98	-0.46768147
109	0xc9	-0.24733154
110	0x56	0.3867366
111	0x31	0.22034992
112	0xda	-0.17088361
113	0x40	0.28780398
114	0xed	-0.085441805
115	0xeb	-0.09443568
116	0xbd	-0.3012948
117	0x65	0.45419064
118	0xc6	-0.26082236
119	0x00	0.0
120	0x53	0.37324578
121	0x47	0.31928253
122	0xd5	-0.1933683
123	0xc5	-0.2653193
124	0x44	0.30579174
125	0x5b	0.4092213
126	0x13	0.085441805
127	0xec	-0.089938745
128	0xf3	-0.058460183
129	0x1c	0.12591425
130	0x4c	0.34176722
131	0x2b	0.1933683
132	0xba	-0.3147856
133	0xf2	-0.06295712
134	0x11	0.076447934
135	0x06	0.026981622
136	0x3c	0.26981622
137	0x0b	0.04946631
138	0xf0	-0.071950994
139	0xed	-0.085441805
140	0xef	-0.076447934
141	0x37	0.24733154
142	0x19	0.11242343
143	0x3b	0.2653193
144	0xf5	-0.04946631
145	0x40	0.28780398
146	0x56	0.3867366
147	0x93	-0.49016616
148	0x66	0.4586876
149	0xd6	-0.18887135
150	0xd9	-0.17538054
151	0x57	0.39123353
152	0x41	0.2923009
153	0xfb	-0.022484686
154	0xb6	-0.33277336
155	0x32	0.22484685
156	0x44	0.30579174
157	0x0c	0.053963244
158	0x17	0.103429556
159	0x5d	0.41821516
160	0x24	0.16188973
161	0x09	0.040472433
162	0x2c	0.19786523
163	0x2c	0.19786523
164	0x4c	0.34176722
165	0x07	0.03147856
166	0xac	-0.3777427
167	0xfd	-0.013490811
168	0xf0	-0.071950994
169	0xf5	-0.04946631
170	0x68	0.46768147
171	0x1f	0.13940506
172	0xf4	-0.053963244
173	0xbd	-0.3012948
174	0xf7	-0.040472433
175	0x50	0.35975498
176	0xa1	-0.42720902
177	0x6c	0.48566923
178	0xcf	-0.22034992
179	0xf0	-0.071950994
180	0x2c	0.19786523
181	0xa8	-0.39573047
182	0xfc	-0.017987749
183	0xf8	-0.035975497
184	0x53	0.37324578
185	0x52	0.36874884
186	0xfc	-0.017987749
187	0x19	0.11242343
188	0x3e	0.2788101
189	0x9a	-0.4586876
190	0xbb	-0.31028867
191	0x35	0.23833767
192	0xd3	-0.20236216
193	0xd8	-0.17987749
194	0x3b	0.2653193
195	0xde	-0.15289587
196	0xf5	-0.04946631
197	0x46	0.3147856
198	0x09	0.040472433
199	0x4d	0.34626415

sequential/dense/MatMul i1 [20, 39] scale=0.0035510303 zero_point=0
0	0xff	-0.0035510303
1	0x13	0.067469575
2	0xf5	-0.039061334
3	0x69	0.37285817
4	0x2a	0.14914328
5	0x34	0.18465358
6	0x0d	0.046163395
7	0xae	-0.29118448
8	0x00	0.0
9	0x9c	-0.35510302
10	0xde	-0.12073503
11	0x01	0.0035510303
12	0x93	-0.3870623
13	0xe1	-0.11008194
14	0xe7	-0.088775754
15	0x53	0.29473552
16	0x36	0.19175564
17	0x3a	0.20595975
18	0xda	-0.13493915
19	0xcf	-0.17400049
20	0x32	0.17755151
21	0xcc	-0.18465358
22	0x2b	0.1526943
23	0xf0	-0.056816485
24	0x8f	-0.40126643
25	0x19	0.088775754
26	0xf8	-0.028408242
27	0xf0	-0.056816485
28	0xa2	-0.33379686
29	0xd1	-0.16689843
30	0x29	0.14559224
31	0x3f	0.2237149
32	0x58	0.31249067
33	0xd8	-0.1420412
34	0xc6	-0.20595975
35	0x38	0.1988577
36	0xd8	-0.1420412
37	0x49	0.25922522
38	0x04	0.014204121
39	0x95	-0.37996024
40	0x0e	0.049714424
41	0x52	0.29118448
42	0x1a	0.09232679
43	0xe6	-0.09232679
44	0x06	0.021306181
45	0x0e	0.049714424
46	0x04	0.014204121
47	0x0c	0.042612363
48	0x35	0.1882046
49	0xaa	-0.3053886
50	0x06	0.021306181
51	0xef	-0.060367513
52	0x03	0.010653091
53	0x42	0.234368
54	0xec	-0.0710206
55	0x4a	0.26277626
56	0x0a	0.0355103
57	0x51	0.28763345
58	0xc8	-0.1988577
59	0xd8	-0.1420412
60	0xdb	-0.13138813
61	0x2b	0.1526943
62	0xd2	-0.1633474
63	0x0f	0.053265456
64	0x0e	0.049714424
65	0xf9	-0.024857212
66	0x47	0.25212315
67	0xd7	-0.14559224
68	0xcf	-0.17400049
69	0xef	-0.060367513
70	0x63	0.351552
71	0x5a	0.3195927
72	0x61	0.34444994
73	0x47	0.25212315
74	0xef	-0.060367513
75	0xc5	-0.20951079
76	0x01	0.0035510303
77	0x21	0.117184
78	0x30	0.17044945
79	0x01	0.0035510303
80	0xba	-0.24857213
81	0xbf	-0.23081698
82	0x2c	0.15624534
83	0xcf	-0.17400049
84	0x32	0.17755151
85	0x43	0.23791903
86	0x4d	0.27342933
87	0xf1	-0.053265456
88	0xb6	-0.26277626
89	0x08	0.028408242
90	0xb9	-0.25212315
91	0x44	0.24147005
92	0xc2	-0.22016388
93	0x2b	0.1526943
94	0x26	0.13493915
95	0x43	0.23791903
96	0x19	0.088775754
97	0x37	0.19530667
98	0x61	0.34444994
99	0xb1	-0.2805314
100	0x33	0.18110254
101	0xc0	-0.22726594
102	0x10	0.056816485
103	0xf0	-0.056816485
104	0x7b	0.43677673
105	0x2d	0.15979636
106	0xb5	-0.26632726
107	0xd5	-0.1526943
108	0xf3	-0.046163395
109	0x61	0.34444994
110	0x53	0.29473552
111	0xe4	-0.09942885
112	0x11	0.060367513
113	0x03	0.010653091
114	0xd4	-0.15624534
115	0x19	0.088775754
116	0x51	0.28763345
117	0xab	-0.30183756
118	0x31	0.17400049
119	0xde	-0.12073503
120	0x28	0.1420412
121	0xec	-0.0710206
122	0x27	0.13849019
123	0xec	-0.0710206
124	0x4a	0.26277626
125	0x20	0.11363297
126	0xaa	-0.3053886
127	0x3c	0.21306182
128	0x3b	0.20951079
129	0x1f	0.11008194
130	0x2b	0.1526943
131	0x1d	0.102979876
132	0xe3	-0.102979876
133	0xb2	-0.27698037
134	0xd5	-0.1526943
135	0x12	0.063918546
136	0x30	0.17044945
137	0xbe	-0.234368
138	0x1e	0.10653091
139	0xc6	-0.20595975
140	0xe8	-0.085224725
141	0x40	0.22726594
142	0x39	0.20240873
143	0xb6	-0.26277626
144	0x32	0.17755151
145	0x3f	0.2237149
146	0x2e	0.1633474
147	0xe1	-0.11008194
148	0x2b	0.1526943
149	0x44	0.24147005
150	0xd1	-0.16689843
151	0x2f	0.16689843
152	0x07	0.024857212
153	0x54	0.29828656
154	0xab	-0.30183756
155	0x10	0.056816485
156	0x59	0.3160417
157	0x02	0.0071020606
158	0x02	0.0071020606
159	0xcb	-0.1882046
160	0xce	-0.17755151
161	0xb6	-0.26277626
162	0x41	0.23081698
163	0xe4	-0.09942885
164	0xd0	-0.17044945
165	0x2f	0.16689843
166	0xe3	-0.102979876
167	0x0d	0.046163395
168	0xc5	-0.20951079
169	0xe5	-0.09587782
170	0xc0	-0.22726594
171	0x2a	0.14914328
172	0x37	0.19530667
173	0x45	0.24502109
174	0xeb	-0.07457164
175	0xdc	-0.12783709
176	0xe9	-0.0816737
177	0x46	0.24857213
178	0xe6	-0.09232679
179	0xea	-0.07812267
180	0xdf	-0.117184
181	0xff	-0.0035510303
182	0x38	0.1988577
183	0x30	0.17044945
184	0xbb	-0.24502109
185	0xb5	-0.26632726
186	0x25	0.13138813
187	0xb8	-0.25567418
188	0x3f	0.2237149
189	0xb0	-0.2840824
190	0xd3	-0.15979636
191	0xc3	-0.21661285
192	0xd3	-0.15979636
193	0x9d	-0.351552
194	0x01	0.0035510303
195	0xd7	-0.14559224
196	0x56	0.3053886
197	0x0a	0.0355103
198	0x13	0.067469575
199	0xef	-0.060367513
200	0xb4	-0.2698783
201	0xf9	-0.024857212
202	0x43	0.23791903
203	0xc6	-0.20595975
204	0xfc	-0.014204121
205	0x95	-0.37996024
206	0xc8	-0.1988577
207	0x91	-0.39416435
208	0x35	0.1882046
209	0x0f	0.053265456
210	0x02	0.0071020606
211	0xc5	-0.20951079
212	0x22	0.12073503
213	0xdf	-0.117184
214	0xfd	-0.010653091
215	0xa8	-0.31249067
216	0xa2	-0.33379686
217	0xe2	-0.10653091
218	0xbe	-0.234368
219	0x2a	0.14914328
220	0xd3	-0.15979636
221	0x2d	0.15979636
222	0x07	0.024857212
223	0xc7	-0.20240873
224	0x6e	0.39061335
225	0xf2	-0.049714424
226	0x0b	0.039061334
227	0x56	0.3053886
228	0xd6	-0.14914328
229	0x18	0.085224725
230	0xac	-0.29828656
231	0x39	0.20240873
232	0xc7	-0.20240873
233	0x20	0.11363297
234	0x1e	0.10653091
235	0xe6	-0.09232679
236	0xef	-0.060367513
237	0xc5	-0.20951079
238	0xc3	-0.21661285
239	0x9a	-0.3622051
240	0xd4	-0.15624534
241	0x30	0.17044945
242	0xd2	-0.1633474
243	0xf9	-0.024857212
244	0xee	-0.063918546
245	0xea	-0.07812267
246	0xf2	-0.049714424
247	0x26	0.13493915
248	0x23	0.12428606
249	0x03	0.010653091
250	0xd5	-0.1526943
251	0xd7	-0.14559224
252	0x47	0.25212315
253	0x33	0.18110254
254	0xc6	-0.20595975
255	0x01	0.0035510303
